code/weights/W2.npy (npy, 928 bytes, 1 tensors)

array f8 [10, 10]
1.5883038714926305 -0.7746565371118654 0.059459899226851895 -1.7460159602510985 0.04525701900067315 1.3819876460472673 -1.6507285246489258 -0.10498888444603072
-0.4935184665379662 -0.31390564876715554 -0.5827103465587092 1.709739204177015 0.031197022811611963 -0.8951628368177341 1.018161139333563 -1.2613744912803826
-0.052822961356350485 -2.1388447383091194 -1.3246291861434265 0.19958130613572464 0.9336640899921398 -0.19085104575833317 -0.2373621582563567 -0.6463619954223746
-0.9067585924014914 0.34440497965367356 -0.738697814659666 0.648989201285709 0.4094477088634423 -1.7848580851013987 1.8375216282153237 -0.3491228426386396
-0.2898416535443461 0.25539446038261376 1.9413376827658382 3.1302481533994038 -3.59070420733794 -1.266965596869929 0.7128509950756059 0.7362389916615271
-0.15205662785216945 -0.03229539994194076 -1.2153651336184133 -1.1056829653317322 1.2206990570584675 1.6889336456465092 -0.8107568108954979 0.6783198694471534
0.445513187478904 -0.7051049162629078 0.38507500113038423 1.401873965827564 -0.011638864908266478 1.721483524971613 -2.4070539824991015 0.8222073839125441
-0.19117050153537704 -0.48909128213992376 0.10079270763395752 -1.9866571512997435 -1.4971735894608436 1.3742892657355656 -0.05753695593797146 -0.12567873775727573
-0.8174104352022548 -2.463506078786308 3.463185420273305 0.9381437244246414 -0.9001420653162568 0.6249958825454941 -0.17393769573540133 1.2760756666307538
-1.3420183451606247 -0.41835120857375957 -0.0020190712733569953 -1.5752197018842067 0.952986383609575 0.21856941589177875 -0.08135199427808669 -0.2187553071845239
-3.3724566388170274 0.06289635234462876 -1.049726336538391 0.37662662337672626 -1.0679302120816128 -3.3331253860571186 4.9113321647265 1.2185231333614044
-0.27836385318477896 0.15181217745392306 -2.151385022196881 0.014774298428938104 0.03834027735725082 2.7507462888645544 -0.21185727161402648 -0.2252667477400186
0.14834797264951402 -1.1580516847878277 1.0668632007976053 0.7389934989393914
00000000: 8fbc 0252 b169 f93f f8e5 9081 fcc9 e8bf
00000010: 2ea0 3425 8771 ae3f fa28 796e aeef fbbf
00000020: 6270 0b91 ed2b a73f 0efc f313 9f1c f63f
00000030: 3f10 3f50 6269 fabf 40a4 2331 8de0 babf
00000040: 2d2b 707a ce95 dfbf 9e03 dfb7 0717 d4bf
00000050: df55 302b 90a5 e2bf cd11 ea7e 175b fb3f
00000060: 2071 d5c2 1cf2 9f3f 8f41 9788 2ca5 ecbf
00000070: 9aee b755 634a f03f 14ed c004 972e f4bf
00000080: 45bd 0177 9c0b abbf 2413 52a1 5a1c 01c0
00000090: 8302 9d5f ae31 f5bf b379 5f57 e18b c93f
000000a0: 2ce8 7e83 93e0 ed3f 963f f89b ce6d c8bf
000000b0: 866f 8219 e261 cebf c1ec f659 ffae e4bf
000000c0: a067 7798 2a04 edbf ee4a 0c2f bb0a d63f
000000d0: bfe0 7299 69a3 e7bf 4656 5f00 85c4 e43f
000000e0: 3866 bf29 6434 da3f e42f f859 c78e fcbf
000000f0: 2f0a 2e14 7d66 fd3f 46d9 da55 0758 d6bf
00000100: 3675 bf01 c48c d2bf b110 bb01 6258 d03f
00000110: 138c 1f1a b80f ff3f f9b7 398b bf0a 0940
00000120: 2902 a120 c3b9 0cc0 5a6a bbb7 7d45 f4bf
00000130: 44aa d8e3 accf e63f a63d e712 458f e73f
00000140: 24ef e171 9776 c3bf 31ae 1fcd 0589 a0bf
00000150: a36f d9b5 2272 f3bf 6681 fd9e e0b0 f1bf
00000160: be2f 05bc fb87 f33f 28a7 5249 df05 fb3f
00000170: 00c6 7944 b8f1 e9bf 9714 f0de cbb4 e53f
00000180: a826 8abe 4983 dc3f e122 732f 3890 e6bf
00000190: af2d 179e 11a5 d83f c97d 4565 136e f63f
000001a0: 3a06 2601 1ed6 87bf acb1 054f 328b fb3f
000001b0: 5352 b484 a541 03c0 18e4 0ddc 854f ea3f
000001c0: 57f5 0666 4678 c8bf fb2d 6385 454d dfbf
000001d0: 2790 f606 8dcd b93f 9826 5302 59c9 ffbf
000001e0: 43b5 324b 6cf4 f7bf ee3f b9bd 16fd f53f
000001f0: 1d45 21e0 7b75 adbf ea2a 3caa 3d16 c0bf
00000200: 3b4a d3ed 3928 eabf 3c13 cfac 42b5 03c0
00000210: 7f76 c08e 9ab4 0b40 413f ebfc 4505 ee3f
00000220: e630 89bb f6cd ecbf 9b5c 755d f7ff e33f
00000230: a1d1 5c25 9743 c6bf 6468 7651 ce6a f43f
00000240: ff8c 713a e878 f5bf 713f c425 44c6 dabf
00000250: 13aa cba2 4c8a 60bf 79b8 f992 1934 f9bf
00000260: ad5d e44c dd7e ee3f 0e9c 9426 15fa cb3f
00000270: df85 e3fa 7bd3 b4bf 228c 1785 2c00 ccbf
00000280: 802d d78b cafa 0ac0 989d 5bb0 f919 b03f
00000290: 9eea d2d7 adcb f0bf 422e 8d8d a61a d83f
000002a0: 5ed0 74fd 3d16 f1bf 5ea9 74a4 3daa 0ac0
000002b0: 3d2c 4d42 34a5 1340 8e4e f31c 127f f33f
000002c0: 884c 749f b6d0 d1bf 7c4a a6d8 946e c33f
000002d0: ca84 bb59 0936 01c0 13cd 96c4 fc41 8e3f
000002e0: 88e8 bc3a 56a1 a33f 0f22 3245 8701 0640
000002f0: 9d42 809a 231e cbbf 7ab7 3571 8ad5 ccbf
00000300: 7f91 7afd 10fd c23f dcdc 1334 6187 f2bf
00000310: 9eb4 cb25 df11 f13f 6cd7 bcb1 d5a5 e73f
